ffnn_model.tflite (tflite, 15128 bytes, 7 tensors)

arith.constant f4 [1, 16]
-0.33583322 0.20634744 -0.37701172 -0.20048518 0.45352525 0.37924352 -0.011786613 -0.52225983
0.053140845 -0.07629755 0.2908179 0.41894618 -0.010526288 -0.15866238 0.49021548 0.41758773
00000000: 55f2 abbe be4c 533e ae07 c1be fd4b 4dbe
00000010: 7634 e83e 352c c23e a31c 41bc d2b2 05bf
00000020: 37aa 593d e441 9cbd 15e6 943e 1d80 d63e
00000030: 7476 2cbc 6478 22be 86fd fa3e 0fce d53e

arith.constant1 f4 [16, 32]
-0.29804227 0.19361311 -0.14212012 -0.0006210915 0.3485326 -0.32057044 -0.24324332 0.08469305
-0.34211236 0.15386161 0.24015298 0.200466 0.11701104 -0.2708456 0.1895531 -0.18538333
-0.25300223 -0.20050135 0.295028 -0.21376199 -0.36213046 -0.13685739 0.10118686 -0.0155670345
0.08040619 -0.029853553 0.16701344 -0.03265935 0.30259842 -0.02329359 0.30527762 -0.2982241
0.026904434 -0.29628053 0.17693049 -0.31250542 -0.21334869 -0.07326403 0.23847339 -0.16363075
-0.24085541 0.14999053 -0.22555459 -0.22180183 0.1385817 0.33879414 -0.06272051 -0.13925791
-0.11112219 0.16368364 0.22936651 0.058378518 0.2513176 -0.14860246 -0.08258042 -0.17417505
-0.13660678 -0.22190821 0.21240553 -0.30504102 0.08834839 -0.1448631 -0.2393361 0.06910368
-0.0726068 -0.21479984 0.12512979 0.15251449 0.19847378 0.10402564 0.22306392 0.16449624
-0.16302173 0.05135727 -0.19350384 -0.30091426 -0.23099926 -0.27288136 0.10810156 -0.23920216
-0.32144237 -0.06254741 -0.32217035 0.24206504 0.012677323 0.029972153 -0.19288169 -0.16636397
0.36651072 -0.10138099 0.27436766 -0.10452704 0.07304651 0.2021212 -0.049254984 -0.19877882
0.28449157 0.2774123 -0.41211882 0.30367282 -0.25964996 0.11177941 0.08114401 -0.18011878
0.07549706 -0.34895644 0.09502977 0.25925604 -0.31122425 -0.2329865 0.14914112 -0.2335522
0.20126614 0.18491688 0.060904056 0.1298036 -0.06985964 0.09710432 0.2691548 0.22221401
-0.30443162 0.2503422 -0.20248045 -0.13441919 0.06543668 0.23364837 -0.2609362 0.037249405
0.28663197 0.11253192 0.28735626 -0.37570247 0.15291896 0.13309036 -0.18384756 0.05983754
0.10627192 0.11342904 -0.12746328 -0.22723034 -0.1831547 0.16109617 0.12904483 -0.15844205
0.34991416 -0.038936798 -0.13945085 0.27228716 0.28689718 -0.15684526 0.057545405 -0.2494601
-0.21811442 -0.22507066 -0.29677272 0.10122037 0.1866863 0.27649087 -0.109788075 0.19664602
0.24131247 -0.03871795 0.037938982 -0.32605186 0.13080081 -0.064468786 -0.090798505 0.25705865
0.117679894 -0.26827633 -0.31104738 0.07951686 0.036056988 0.21335505 -0.25223938 0.31905675
-0.04327193 0.25108778 0.112804174 -0.3327845 0.20683509 0.24021612 0.32705024 -0.015498757
-0.08681348 0.27329716 0.34451035 0.17145702 -0.31021208 0.16079585 0.07795659 0.017611228
0.04571551 0.0011979894 0.25142276 -0.105439864 0.24900964 0.15237758 -0.34060228 0.234716
0.13003626 0.25998703 0.11666265 -0.08942413 0.2605045 -0.11134078 0.1756212 -0.17278798
0.20884177 -0.3006068 0.29848257 0.2969853 0.21386099 -0.27673241 0.16278836 0.18563476
0.06280342 -0.3241059 -0.33362627 0.3027126 -0.29952323 0.032716107 0.2708585 0.15480612
-0.35241425 0.018261135 0.30720523 -0.18816295 0.22962603 0.2428883 -0.33821893 0.17913261
-0.123582825 -0.14380057 -0.05277756 0.3091598 0.34247306 -0.12722802 -0.30591026 0.24125901
0.29787502 0.13821709 0.012648761 -0.3486936 0.0057533085 -0.3286973 -0.21232308 -0.037845343
-0.34779495 0.2555056 0.18197349 0.27867064 0.16481212 0.03396952 -0.062386006 -0.16426389
00000000: ff98 98be 8442 463e f087 11be bfd0 22ba
00000010: dd72 b23e cf21 a4be c714 79be 8d73 ad3d
00000020: 5a29 afbe e68d 1d3e aaea 753e f646 4d3e
00000030: 7ca3 ef3d 46ac 8abe 351a 423e 21d5 3dbe
00000040: 8289 81be 3a50 4dbe e90d 973e 6ce4 5abe
00000050: 2a69 b9be 5824 0cbe 0e3b cf3d e00c 7fbc
00000060: 00ac a43d 708f f4bc 9205 2b3e d0c5 05bd
00000070: 2eee 9a3e 33d2 bebc 594d 9c3e d4b0 98be
00000080: b066 dc3c 15b2 97be 442d 353e b600 a0be
00000090: 1478 5abe 740b 96bd 5e32 743e d28e 27be
000000a0: cda2 76be 1e97 193e c8f7 66be 0520 63be
000000b0: 5ce8 0d3e 6d76 ad3e 9c73 80bd a099 0ebe
000000c0: 0894 e3bd af9c 273e 0edf 6a3e 501e 6f3d
000000d0: b3ac 803e 3e2b 18be ec1f a9bd f25a 32be
000000e0: a6e2 0bbe e83b 63be d680 593e 562e 9cbe
000000f0: 00f0 b43d fe56 14be 8614 75be 3b86 8d3d
00000100: e0b2 94bd 7df4 5bbe 0622 003e c22c 1c3e
00000110: b63c 4b3e 650b d53d de6a 643e b471 283e
00000120: 2bef 26be 005c 523d df25 46be 6f11 9abe
00000130: 128b 6cbe 1bb7 8bbe 5a64 dd3d 69f1 74be
00000140: 1894 a4be db18 80bd 83f3 a4be e6df 773e
00000150: 8cb4 4f3c 2988 f53c c782 45be 515b 2abe
00000160: 4ba7 bb3e d6a0 cfbd eb79 8c3e 4612 d6bd
00000170: 6999 953d dcf8 4e3e 98bf 49bd ad8c 4bbe
00000180: e1a8 913e fc08 8e3e 3d01 d3be 017b 9b3e
00000190: d7f0 84be 9aec e43d d52e a63d 0f71 38be
000001a0: 349e 9a3d 6baa b2be f89e c23d 35bd 843e
000001b0: c958 9fbe 0394 6ebe 73b8 183e 4f28 6fbe
000001c0: b618 4e3e da5a 3d3e 8876 793d 3ceb 043e
000001d0: 9212 8fbd a1de c63d a8ce 893e 128c 633e
000001e0: 76de 9bbe da2c 803e 0957 4fbe 2fa5 09be
000001f0: ab03 863d 8541 6f3e 6e99 85be d592 183d
00000200: 6dc1 923e 2377 e63d 5c20 933e 135c c0be
00000210: ca96 1c3e d748 083e 8942 3cbe 3518 753d
00000220: 18a5 d93d 7c4d e83d bc85 02be 12af 68be
00000230: e88c 3bbe 65f6 243e 5424 043e a23e 22be
00000240: f327 b33e 317c 1fbd 34cc 0ebe 3969 8b3e
00000250: 30e4 923e 0b9c 20be bbb4 6b3d 7872 7fbe
00000260: 6359 5fbe ec78 66be 98f2 97be a04c cf3d
00000270: b22a 3f3e 3690 8d3e 92d8 e0bd 935d 493e
00000280: 9e1a 773e b796 1ebd e865 1b3d 45f0 a6be
00000290: a6f0 053e 3608 84bd 91f4 b9bd 319d 833e
000002a0: 2802 f13d 845b 89be 9a41 9fbe bcd9 a23d
000002b0: 7eb0 133d bf79 5a3e 8525 81be 685b a33e
000002c0: e83d 31bd 948e 803e e005 e73d bb62 aabe
000002d0: 94cc 533e 37fb 753e 2173 a73e 80ee 7dbc
000002e0: 44cb b1bd 9bed 8b3e a963 b03e 6e92 2f3e
000002f0: 1ed4 9ebe aba7 243e b4a7 9f3d 6c45 903c
00000300: 3040 3b3d db05 9d3a 7cba 803e dbf0 d7bd
00000310: 62fc 7e3e de08 1c3e 6c63 aebe 6459 703e
00000320: 3a28 053e 051d 853e d4ec ee3d 0024 b7bd
00000330: d960 853e a306 e4bd 0bd6 333e 55ef 30be
00000340: 9eda 553e 22e9 99be b5d2 983e 750e 983e
00000350: 60fe 5a3e dfaf 8dbe feb1 263e 0a17 3e3e
00000360: 149f 803d 35f1 a5be 10d1 aabe 25fd 9a3e
00000370: 1c5b 99be 5301 063d f7ad 8a3e 7f85 1e3e
00000380: a46f b4be 6098 953c 014a 9d3e caad 40be
00000390: 1623 6b3e b6b7 783e 082b adbe 8a6e 373e
000003a0: fe18 fdbd 7540 13be 482d 58bd 314a 9e3e
000003b0: a158 af3e 1048 02be 45a0 9cbe 9a0c 773e
000003c0: 1383 983e c888 0d3e c03c 4f3c f887 b2be
000003d0: 4086 bc3b 034b a8be 396b 59be b803 1bbd
000003e0: 2e12 b2be a1d1 823e 4257 3a3e ebad 8e3e
000003f0: 82c4 283e a023 0b3d 7888 7fbd cb34 28be

arith.constant2 f4 [32, 64]
-0.165259 0.05743152 -0.08608562 0.14443618 -0.13470453 0.09272903 -0.16239262 0.10948658
-0.14786571 -0.12359071 0.0023429394 -0.14963251 0.18175977 0.0062978864 -0.20842713 -0.023700118
0.13934934 0.23714453 -0.17600042 -0.113912106 0.23904854 -0.097546875 0.17835629 -0.11106306
-0.103961766 0.08576882 0.06574994 -0.011113524 0.15884489 -0.20975035 0.09648085 0.17685044
0.1552465 -0.22466463 0.15276384 0.09542656 0.18802005 -0.23333389 -0.0446707 -0.009061277
-0.019908905 0.16924977 -0.14179456 0.037601173 0.14021271 0.18254852 0.027165174 0.1699276
-0.24860722 -0.16039109 -0.0190292 -0.16040313 -0.12315297 0.10473806 0.19812137 -0.121879816
0.14049351 0.12445575 0.111288965 0.032714844 0.10351527 0.12805837 0.020543516 -0.14874601
-0.19033393 -0.04565407 -0.21555348 -0.14955628 0.21853489 -0.21344185 0.08541725 -0.12980056
-0.18838614 -0.04974733 -0.016499579 -0.20297813 0.21201026 -0.23406631 -0.24488351 0.18128273
0.09886573 0.117562056 -0.012034829 -0.0352273 0.09369984 -0.22712839 0.012031674 0.12639196
-0.04846145 -0.08105456 -0.12634775 0.14409299 -0.14920366 0.18675283 0.19317156 -0.13890934
-0.013756514 -0.23715109 0.081018806 -0.0019966196 0.07069796 -0.24732007 -0.15472288 0.013448665
0.12252138 -0.047118068 0.14068002 0.08279526 0.21240526 0.043991618 -0.17649399 0.026473403
0.12680237 -0.050913632 -0.022086442 0.04997003 -0.23986438 0.099356234 -0.08522785 0.15240288
0.17418426 0.21698081 -0.073220134 -0.19116974 0.14776808 0.07562692 -0.11480379 -0.0013411478
-0.07058919 -0.21529227 -0.0046091857 -0.02190519 0.20309043 -0.102059245 0.101039074 0.12869436
-0.035636142 -0.19667566 -0.09515041 -0.060504913 0.24404103 0.09716671 0.16858768 -0.08598642
0.021760734 -0.029630601 0.17879239 0.13075453 -0.15534227 -0.021568537 -0.0555557 -0.1316229
0.17886338 0.12345038 0.18986392 -0.19082949 0.16497421 -0.031639334 -0.022204697 0.10281226
-0.1006521 -0.24361475 0.021433473 0.22157313 -0.20784122 0.022024075 -0.027327135 -0.088855654
-0.10757611 -0.1800381 -0.025669038 0.0005842447 -0.14073975 -0.05355815 -0.20265143 0.09427836
0.1119175 -0.15536684 0.1004976 0.22197008 0.07318921 0.14528215 -0.17307805 0.059553914
0.024467707 0.27628046 0.2089023 0.034232497 -0.029878378 0.1880437 0.17012751 -0.1158593
-0.03983598 0.12056574 -0.08913377 0.1263583 -0.0030221343 -0.3507031 0.009927729 -0.160626
-0.019662967 -0.18159801 0.016050339 -0.0956254 0.2157743 0.22497934 0.13750999 -0.11847311
0.15630618 0.0052395463 0.08335115 0.044327557 0.17268953 0.19152176 0.23972172 0.085394025
-0.09953266 -0.11808951 -0.22425559 -0.2546606 0.100842535 -0.14314352 -0.19604349 0.048243023
-0.21099287 0.09018037 0.025109768 0.21815386 0.13277858 0.020567657 -0.043125603 -0.21344857
0.2455423 -0.009019136 -0.126109 -0.027762473 -0.2846072 0.20687401 -0.5000632 0.123566344
0.06844272 -0.20198464 -0.10791081 -0.012860239 -0.048437167 0.19843179 0.27179652 -0.017403433
-0.16069281 -0.28055438 0.1841327 0.15641695 -0.23055089 0.27709985 0.05975288 0.10461139
00000000: a839 29be 503d 6b3d a84d b0bd 14e7 133e
00000010: fcef 09be b8e8 bd3d 404a 26be 803a e03d
00000020: 1c6a 17be 201d fdbd 008c 193b 4439 19be
00000030: 3c1f 3a3e 805e ce3b ec6d 55be c026 c2bc
00000040: 98b1 0e3e 04d6 723e 7439 34be c04a e9bd
00000050: 24c9 743e a8c6 c7bd 08a3 363e 0875 e3bd
00000060: e8e9 d4bd 90a7 af3d e8a7 863d 8015 36bc
00000070: 3ca8 223e ccc8 56be c097 c53d 4818 353e
00000080: f0f8 1e3e 7c0e 66be 206e 1c3e 006f c33d
00000090: 5488 403e 14ef 6ebe a0f8 36bd c075 14bc
000000a0: 0018 a3bc d04f 2d3e 9832 11be b003 1a3d
000000b0: ec93 0f3e 00ee 3a3e 8089 de3c 8001 2e3e
000000c0: e492 7ebe 903d 24be 20e3 9bbc b840 24be
000000d0: a037 fcbd e880 d63d 54e0 4a3e 209c f9bd
000000e0: 88dd 0f3e a8e2 fe3d 78eb e33d 0000 063d
000000f0: d0ff d33d bc21 033e e04a a83c e050 18be
00000100: e6e6 42be c3ff 3abd 0dba 5cbe 4825 19be
00000110: 9cc7 5f3e 8090 5abe 3def ae3d 70ea 04be
00000120: 4ce8 40be dbc3 4bbd 202a 87bc 80d9 4fbe
00000130: 3819 593e 14af 6fbe bec2 7abe 2ea2 393e
00000140: 1e7a ca3d 60c4 f03d bb2d 45bc 804a 10bd
00000150: b4e5 bf3d 5894 68be 8020 453c e56c 013e
00000160: 837f 46bd efff a5bd 4e61 01be 1d8d 133e
00000170: d8c8 18be 223c 3f3e c4ce 453e 403e 0ebe
00000180: 0063 61bc bcd7 72be 30ed a53d b8d9 02bb
00000190: 18ca 903d 7941 7dbe ad6f 1ebe ca57 5c3c
000001a0: 7dec fa3d e0fe 40bd 6c0e 103e 9090 a93d
000001b0: c480 593e 8e30 343d d7ba 34be c0de d83c
000001c0: 7bd8 013e d08a 50bd a0ee b4bc 60ad 4c3d
000001d0: 029f 75be 487b cb3d f08b aebd 800f 1c3e
000001e0: 5c5d 323e 3830 5e3e 70f4 95bd 00c2 43be
000001f0: 8450 173e 49e2 9a3d 401e ebbd 74c9 afba
00000200: 1191 90bd 9475 5cbe a708 97bb 8372 b3bc
00000210: f0f6 4f3e 7004 d1bd 93ed ce3d 74c8 033e
00000220: 34f7 11bd 5865 49be 38de c2bd 00d4 77bd
00000230: e4e5 793e 57ff c63d 40a2 2c3e a619 b0bd
00000240: 9143 b23c e0bb f2bc 5a15 373e 84e4 053e
00000250: 0b12 1fbe 80b0 b0bc 608e 63bd 27c8 06be
00000260: f627 373e 8ed3 fc3d b06b 423e ce68 43be
00000270: 00ef 283e 3f98 01bd a0e6 b5bc 3c8f d23d
00000280: b022 cebd 2576 79be 4095 af3c 11e4 623e
00000290: 54d4 54be d56b b43c 28dd dfbc f4f9 b5bd
000002a0: dd50 dcbd e85b 38be e047 d2bc 0028 193a
000002b0: 151e 10be ca5f 5bbd db83 4fbe 0315 c13d
000002c0: 0135 e53d 7c18 1fbe b0d1 cd3d 204c 633e
000002d0: 39e4 953d d8c4 143e 5f3b 31be ceee 733d
000002e0: 8070 c83c a274 8d3e 7cea 553e 6037 0c3d
000002f0: 80c3 f4bc 878e 403e e835 2e3e a447 edbd
00000300: 0d2b 23bd 2ceb f63d c48b b6bd 1264 013e
00000310: 000f 46bb 5b8f b3be eaa7 223c 247b 24be
00000320: 3b14 a1bc d4f4 39be 007c 833c 40d7 c3bd
00000330: f0f3 5c3e fc60 663e 6bcf 0c3e 08a2 f2bd
00000340: ba0e 203e 80b0 ab3b 02b4 aa3d d090 353d
00000350: 86d5 303e 481e 443e 9c79 753e 10e3 ae3d
00000360: c7d7 cbbd ead8 f1bd 42a3 65be e062 82be
00000370: 8886 ce3d 3794 12be a0bf 48be 7a9a 453d
00000380: 840e 58be 7cb0 b83d 00b3 cd3c ba63 5f3e
00000390: 1cf7 073e 817d a83c 79a4 30bd 4392 5abe
000003a0: 716f 7b3e 00c5 13bc b822 01be 206e e3bc
000003b0: 09b8 91be c8d6 533e 2404 00bf 5a10 fd3d
000003c0: b22b 8c3d 10d5 4ebe 5800 ddbd c0b3 52bc
000003d0: 0d66 46bd b431 4b3e ea28 8b3e a591 8ebc
000003e0: a88c 24be d3a4 8fbe 488d 3c3e c42b 203e
000003f0: 8815 6cbe 08e0 8d3e 70bf 743d 7f3e d63d

arith.constant4 f4 [16]
-0.17828189 -0.03702418 -0.0069548865 -0.007878 -0.0896668 -0.08258399 -0.031773854 -0.03268546
-0.07349799 -0.016069593 0.7652059 0.77445346 -0.057206843 -0.079530284 -0.038625922 -0.10589309
00000000: 878f 36be aba6 17bd d1e5 e3bb ba12 01bc
00000010: 3aa3 b7bd cc21 a9bd 4d25 02bd 30e1 05bd
00000020: 1d86 96bd 61a4 83bc 89e4 433f 9542 463f
00000030: b951 6abd c6e0 a2bd 3736 1ebd 7ade d8bd

arith.constant5 f4 [32]
0.0 -0.035574835 -0.021189597 0.051003974 0.0 -0.04736647 -0.026818432 -0.02271825
0.0 0.0 0.0 0.0 -0.035458893 -0.04764946 -0.03284546 -0.039024763
0.0 -0.055947624 0.0 0.0 -0.018727876 -0.01270875 -0.019575818 0.0
-0.026468992 -0.031710003 0.0 0.0 -0.024882302 -0.017723117 0.0 -0.05061366
00000000: 0000 0000 ebb6 11bd ce95 adbc 8be9 503d
00000010: 0000 0000 5803 42bd 54b2 dbbc a01b babc
00000020: 0000 0000 0000 0000 0000 0000 0000 0000
00000030: 583d 11bd 152c 43bd f688 06bd 6ed8 1fbd
00000040: 0000 0000 5629 65bd 0000 0000 0000 0000
00000050: 346b 99bc 5c38 50bc 775d a0bc 0000 0000
00000060: 80d5 d8bc 59e2 01bd 0000 0000 0000 0000
00000070: f8d5 cbbc 1230 91bc 0000 0000 4550 4fbd

sequential_1/dense_1/Add/ReadVariableOp/resource f4 [64]
0.010001327 0.06685095 0.019208273 0.04241639 0.0 0.092264175 -0.06533785 0.0
0.0007539467 -0.0066149854 0.0 0.0 0.0 0.07231785 0.06271202 -0.03359874
0.00957805 0.0 -0.12999466 0.0 0.050898626 0.0 0.0 0.018871453
-0.12683386 -0.06967473 -0.067927 -0.051782988 0.0 -0.010344954 0.0 -0.10178486
0.0 0.05007024 0.0 -0.042230185 0.0 -0.013203409 -0.03328478 -0.12296079
0.007087761 0.0 0.0 0.0 -0.058596257 0.0068961903 -0.02413289 0.019404046
0.011364634 0.0 0.0 0.0 -0.07774823 0.0 -0.010776501 -0.057220977
0.0 0.014560955 0.0 0.0 0.0 -0.00016624542 0.0 0.025033943
00000000: 9bdc 233c 27e9 883d ab5a 9d3c cfbc 2d3d
00000010: 0000 0000 00f5 bc3d dacf 85bd 0000 0000
00000020: 82a4 453a 85c2 d8bb 0000 0000 0000 0000
00000030: 0000 0000 621b 943d 296f 803d d59e 09bd
00000040: 41ed 1c3c 0000 0000 521d 05be 0000 0000
00000050: 147b 503d 0000 0000 0000 0000 4e98 9a3c
00000060: bce0 01be a0b1 8ebd 501d 8bbd 661a 54bd
00000070: 0000 0000 e27d 29bc 0000 0000 9574 d0bd
00000080: 0000 0000 7416 4d3d 0000 0000 8ff9 2cbd
00000090: 0000 0000 1c53 58bc 9f55 08bd ded2 fbbd
000000a0: 7340 e83b 0000 0000 0000 0000 0000 0000
000000b0: a102 70bd 70f9 e13b 57b2 c5bc 3cf5 9e3c
000000c0: bb32 3a3c 0000 0000 0000 0000 0000 0000
000000d0: 773a 9fbd 0000 0000 ec8f 30bc 8b60 6abd
000000e0: 0000 0000 1291 6e3c 0000 0000 0000 0000
000000f0: 0000 0000 2a52 2eb9 0000 0000 fc13 cd3c

sequential_1/dense_1/MatMul f4 [64, 7]
0.2188692 -0.16800591 0.10336051 0.041380867 0.12603012 0.16517262 -0.06802345 0.13246295
-0.09418247 0.18502489 -0.2248185 0.22691704 0.25979605 -0.043964915 -0.23230408 0.22401881
0.13914172 -0.15770125 -0.12891236 -0.0057127113 0.16176632 0.20492786 -0.11767573 0.19572067
0.24684401 -0.14584163 0.26715377 -0.1417141 -0.23522961 -0.27623904 -0.16690943 -0.03754574
0.27670446 0.19788736 0.11108658 -0.09966769 0.29760063 0.09321266 0.23056589 -0.0063812565
-0.55048895 -0.31413624 -0.18895382 -0.10494705 0.11886553 -0.32345653 0.12789911 0.0066433977
-0.23562786 -0.20922345 0.26243183 -0.24440542 -0.2548755 -0.09901725 -0.16265465 0.060159445
-0.02461732 0.16223171 0.11168997 0.011739473 0.12652728 0.042048622 -0.01373265 -0.2032038
0.24418728 -0.018775454 -0.13010225 0.12478376 0.31075788 0.3197949 -0.17718455 0.25843236
-0.1541087 -0.12741987 0.05782941 0.1650778 9.918213e-05 0.024487376 0.13815382 -0.23633875
0.042476684 -0.052976504 -0.021288395 -0.23904504 0.08708802 0.12649342 -0.1982339 -0.11943838
0.14182413 0.13066283 -0.26219857 -0.16471338 0.060085487 0.18430573 0.12975958 -0.17736542
0.08873625 -0.22097498 -0.2422523 -0.22788008 0.29086044 -0.08992477 -0.26400635 -0.33111113
-0.29344812 -0.052234482 0.24312428 0.06616481 -0.011504883 0.12556493 0.15660805 0.02379465
0.17845134 0.13943249 -0.026758485 -0.0073773647 0.01617066 -0.29744905 0.11078915 -0.18682094
0.052771002 -0.13970238 -0.047985673 -0.175344 -0.20056523 0.21322653 -0.014532329 0.06825331
0.13884778 -0.082352936 -0.43898022 -0.224514 -0.15023755 -0.11776368 0.25691882 -0.2603834
-0.035909355 -0.28719518 -0.23587078 0.2654384 0.22017448 -0.015219185 0.26369423 -0.037100337
0.24789578 0.017606882 -0.23993537 -0.23572509 -0.2254257 -0.15519644 -0.048511654 0.13935369
-0.22806907 0.0031070411 0.22983041 -0.17858848 -0.21288612 -0.19888929 -0.03725472 -0.1928631
-0.11952473 0.06316252 0.24458712 0.062634975 0.13020165 0.16957338 0.22016014 -0.009129604
-0.26895362 -0.17662302 0.07022766 -0.07297217 -0.20587872 -0.35876948 -0.08695173 0.17253403
-0.26724908 -0.20635661 -0.076266214 -0.04737187 -0.22661722 0.2013695 0.09958924 -0.11145246
0.12327182 -0.33314785 0.12788504 0.16723785 -0.027396407 0.13998228 -0.23211206 -0.06791955
-0.281362 0.091150135 0.17771299 0.26235497 -0.04999721 0.17342761 -0.12066659 0.25675496
0.27731392 0.26181778 -0.12860242 0.21823615 0.25756234 0.0100038005 0.13351782 0.23963374
0.035944764 0.18189721 0.12632084 0.11810675 -0.105608344 -0.17657727 -0.1545927 0.10261324
-0.24586062 -0.12012909 -0.28327757 0.16304722 -0.29931605 -0.32931063 -0.19645351 -0.40710223
-0.23771626 0.172449 -0.093426764 0.26811436 0.008164197 0.060432434 0.108792245 -0.07922129
0.048814412 0.20745793 0.053796455 -0.06890458 -0.1717537 0.05734281 -0.055332452 -0.023579717
-0.090902686 0.17504042 -0.280343 0.10954508 -0.07374869 -0.13628678 -0.3036649 0.04755773
-0.020281795 -0.07873882 -0.25601548 -0.10238356 0.23151872 0.08503482 -0.22766298 0.28178355
00000000: 3f1f 603e be09 2cbe adae d33d fc7e 293d
00000010: 0a0e 013e 0323 293e e14f 8bbd 5ea4 073e
00000020: bde2 c0bd 2a77 3d3e d236 66be f15c 683e
00000030: fd03 853e 8e14 34bd 1fe1 6dbe 3065 653e
00000040: 2b7b 0e3e 707c 21be 9a01 04be b231 bbbb
00000050: 12a6 253e 9cd8 513e f9ff f0bd 006b 483e
00000060: adc4 7c3e 8257 15be 61c8 883e 801d 11be
00000070: 08e0 70be 346f 8dbe 4eea 2abe 90c9 19bd
00000080: 35ac 8d3e fca2 4a3e 5c81 e33d 931e ccbd
00000090: 1c5f 983e 47e6 be3d 7719 6c3e dc19 d1bb
000000a0: d8ec 0cbf 77d6 a0be 1c7d 41be 7bee d6bd
000000b0: c56f f33d 189c a5be fcf7 023e dcb0 d93b
000000c0: 6e48 71be ac3e 56be 775d 863e 6a45 7abe
000000d0: 0b7f 82be 8ec9 cabd f18e 26be c069 763d
000000e0: 43aa c9bc 1220 263e b6bd e43d eb56 403c
000000f0: 5e90 013e 2d3b 2c3d e9fe 60bc a814 50be
00000100: 3b0c 7a3e fbce 99bc 8639 05be a18e ff3d
00000110: a81b 9f3e 28bc a33e de6f 35be 3f51 843e
00000120: acce 1dbe 5b7a 02be 88de 6c3d 280a 293e
00000130: 0000 d038 c099 c83c 3278 0d3e c902 72be
00000140: 08fc 2d3d e4fd 58bd 0065 aebc 39c8 74be
00000150: 345b b23d 7e87 013e d4fd 4abe 1c9c f4bd
00000160: 583a 113e 7acc 053e e43e 86be a0aa 28be
00000170: 331c 763d a4ba 3c3e b2df 043e 489f 35be
00000180: 5abb b53d 4447 62be fd10 78be 6559 69be
00000190: a9eb 943e 7a2a b8bd d72b 87be 6687 a9be
000001a0: d53e 96be d3f3 55bd 92f5 783e 6a81 873d
000001b0: fa7e 3cbc 1894 003e dc5d 203e ffec c23c
000001c0: f3bb 363e 64c7 0e3e 9c34 dbbc d2bd f1bb
000001d0: 5578 843c 3e4b 98be 6ce5 e23d fd4d 3fbe
000001e0: 6826 583d 240e 0fbe a08c 44bd 618d 33be
000001f0: f960 4dbe 0e58 5a3e 0119 6ebc 64c8 8b3d
00000200: 1d2e 0e3e a8a8 a8bd 04c2 e0be ffe6 65be
00000210: dfd7 19be 162e f1bd dd8a 833e f950 85be
00000220: b015 13bd 3f0b 93be 1c88 71be 8be7 873e
00000230: 6b75 613e e359 79bc ee02 873e 86f6 17bd
00000240: 64d8 7d3e 4f3c 903c 9eb1 75be eb61 71be
00000250: ffd5 66be d1eb 1ebe 28b4 46bd bcb2 0e3e
00000260: f08a 69be 809f 4b3b aa58 6b3e e6df 36be
00000270: d2fe 59be a2a9 4bbe 6898 18bd e87d 45be
00000280: 62c9 f4bd 5a5b 813d 0c75 7a3e c446 803d
00000290: 9553 053e a5a4 2d3e a971 613e 5694 15bc
000002a0: 4ab4 89be aadc 34be 85d3 8f3d 6f72 95bd
000002b0: dfd1 52be a2b0 b7be c013 b2bd c3ac 303e
000002c0: dfd4 88be 264f 53be 7631 9cbd 0209 42bd
000002d0: 580e 68be ce33 4e3e 72f5 cb3d 3041 e4bd
000002e0: f075 fc3d 5b92 aabe 4cf4 023e 6640 2b3e
000002f0: 6e6e e0bc 8457 0f3e c9ae 6dbe 6819 8bbd
00000300: ae0e 90be ecac ba3d 65fa 353e 6453 863e
00000310: e0c9 4cbd 0297 313e 0c20 f7bd 6375 833e
00000320: 17fc 8d3e fb0c 863e 5ab0 03be 4c79 5f3e
00000330: 36df 833e fbe6 233c e5b8 083e 8c62 753e
00000340: d13a 133d 4343 3a3e 405a 013e f4e1 f13d
00000350: 3049 d8bd acd0 34be 8c4d 1ebe e426 d23d
00000360: e3c2 7bbe 3e06 f6bd c209 91be daf5 263e
00000370: f43f 99be 679b a8be 1c2b 49be b46f d0be
00000380: e46b 73be 7896 303e 8856 bfbd 4946 893e
00000390: 20c3 053c 0088 773d 78ce de3d c63e a2bd
000003a0: 9ff1 473d da6f 543e ac59 5c3d d81d 8dbd
000003b0: 34e0 2fbe 4be0 6a3d 48a4 62bd 402a c1bc
000003c0: 302b babd cc3d 333e 1e89 8fbe 2c59 e03d
000003d0: 8e09 97bd c38e 0bbe f779 9bbe e5cb 423d
000003e0: 0226 a6bc d241 a1bd 7614 83be 79ae d1bd
000003f0: 3e13 6d3e bc26 ae3d 7c20 69be ef45 903e
